…
To enable them in other operations, rebuild TensorFlow with the appropriate compiler flags.
2020-08-29 18:45:49.501864: I tensorflow/compiler/xla/service/service.cc:168] XLA service 0x7f9dfdf4b920 initialized for platform Host (this does not guarantee that XLA will be used). Devices:
2020-08-29 18:45:49.501886: I tensorflow/compiler/xla/service/service.cc:176]   StreamExecutor device (0): Host, Default Version
Model: "sequential"
_________________________________________________________________
Layer (type)                 Output Shape              Param #   
=================================================================
hidden_0 (Dense)             (None, 256)               50688     
_________________________________________________________________
dropout_0 (Dropout)          (None, 256)               0         
_________________________________________________________________
hidden_1 (Dense)             (None, 128)               32896     
_________________________________________________________________
dropout_1 (Dropout)          (None, 128)               0         
_________________________________________________________________
hidden_2 (Dense)             (None, 64)                8256      
_________________________________________________________________
dropout_2 (Dropout)          (None, 64)                0         
_________________________________________________________________
output (Dense)               (None, 2)                 130       
=================================================================
Total params: 91,970
Trainable params: 91,970
Non-trainable params: 0
_________________________________________________________________
training model ...
Epoch 1/100
79/79 - 0s - loss: 0.3349 - binary_crossentropy: 0.3349 - binary_accuracy: 0.8568 - val_loss: 0.1520 - val_binary_crossentropy: 0.1520 - val_binary_accuracy: 0.9442
…
